…
2019-05-28 16:36:41.861656: I tensorflow/compiler/xla/service/service.cc:150] XLA service 0x7ffe0fa6a7c0 executing computations on platform Host. Devices:
2019-05-28 16:36:41.861701: I tensorflow/compiler/xla/service/service.cc:158]   StreamExecutor device (0): <undefined>, <undefined>
Found 17943 images belonging to 10 classes.
Found 4481 images belonging to 10 classes.
_________________________________________________________________
Layer (type)                 Output Shape              Param #   
=================================================================
input (InputLayer)           (None, 480, 360, 3)       0         
_________________________________________________________________
conv_1 (Conv2D)              (None, 478, 358, 128)     3584      
_________________________________________________________________
pool_1 (MaxPooling2D)        (None, 239, 179, 128)     0         
_________________________________________________________________
conv_2 (Conv2D)              (None, 237, 177, 64)      73792     
_________________________________________________________________
pool_2 (MaxPooling2D)        (None, 118, 88, 64)       0         
_________________________________________________________________
conv_3 (Conv2D)              (None, 116, 86, 32)       18464     
_________________________________________________________________
pool_3 (MaxPooling2D)        (None, 58, 43, 32)        0         
_________________________________________________________________
conv_4 (Conv2D)              (None, 56, 41, 16)        4624      
_________________________________________________________________
pool_4 (MaxPooling2D)        (None, 28, 20, 16)        0         
_________________________________________________________________
flatten_1 (Flatten)          (None, 8960)              0         
_________________________________________________________________
fc_1 (Dense)                 (None, 1024)              9176064   
_________________________________________________________________
softmax (Dense)              (None, 10)                10250     
=================================================================
Total params: 9,286,778
Trainable params: 9,286,778
Non-trainable params: 0
_________________________________________________________________
None
Epoch 1/4

   1/1121 [..............................] - ETA: 2:26:47 - loss: 2.3131 - acc: 0.0625
   2/1121 [..............................] - ETA: 2:14:20 - loss: 2.6508 - acc: 0.0312
…
